app/src/main/ml/model.tflite (tflite, 149228 bytes, 10 tensors)

sequential_1/dense_4/BiasAdd/ReadVariableOp f4 [3]
00000000: a544 a5ba dda9 4abc 8cc6 e93b
-0.0012608959 -0.0123696 0.0071342643

sequential_1/dense_3/BiasAdd/ReadVariableOp f4 [128]
00000000: 3852 1dbc b67c ecbb 6acc 55bc 083c d1bb
00000010: 05f2 50bb 83ce 463c 781d 223c d795 f0bb
00000020: f26e d7bb a440 bbbb 0000 0000 0000 0000
00000030: 6d0a c2bb a8a2 e239 45db 893c 0000 0000
00000040: e1d9 6fbc 631e d63a ba4f 4abb 0d16 86ba
00000050: f577 b93c ccdb 413c 85ad 50bc 381c 633c
00000060: 70c4 c4bb 7055 24bc eb1b c63c 226c 37bb
00000070: 4129 fdbb 6d56 4cbc 3cdd 2ebc d2a0 043c
00000080: 42f8 3fbb 0000 0000 36fa e7bb b699 aebb
00000090: 6bb2 4fba a1b2 363c e78a 16bc 0000 0000
000000a0: 1786 35bb 0000 0000 6c00 373b 2bc7 c4bb
000000b0: 9eea 8439 0000 0000 178c 26bc d832 4bbc
000000c0: f605 5d3c 2a82 673c 0000 0000 75c5 c4bb
000000d0: 6dd3 303c 0000 0000 4ba5 113c f716 e73b
000000e0: 2161 593c cc89 02bc 06be a4bc 1ab5 a03c
000000f0: 6008 043c 7ce5 79bb e92f 04bc 9876 9dbc
00000100: 0000 0000 ce25 e33c de89 293c 04d9 493b
00000110: 95d0 00bc 5988 6bbc 4f01 9dbc e83b bbbb
00000120: 4ef8 853c 25f1 803c 1c0a 4b3c 0da9 4f3c
00000130: a72a 2ebc e0c9 cd3b 6d2c 0ebb 7c86 0f3c
00000140: 755f 493c 8ebb 303c 4ca1 733c d306 013c
00000150: 0000 0000 0000 0000 49ed 933c 3b47 82bb
00000160: 72be 993b 0000 0000 2249 4a3c 12e2 81bb
00000170: 2655 5cbb 4d83 d53a 3e3d fa3b 3974 cc3b
00000180: a9d8 a8bb 5406 803a bf9c 823c bcb4 d1bb
00000190: 6875 9eba b17a 633b 0423 903c c276 d83b
000001a0: 6a55 95bc 0000 0000 1c94 473c 1c0a 193c
000001b0: 111d 2c3a bcc3 233b 0000 0000 0000 0000
000001c0: 8305 3fbc b77c acba 02f2 a9bb 0000 0000
000001d0: cc36 1d3b 3b4e a23b 0000 0000 42e0 d23b
000001e0: d1d1 84bb c48f f3bb cff1 053c b76f 153c
000001f0: 95a5 1ebb 872d 8abc 969c 4f3b 3da0 973c
-0.009602122 -0.007217015 -0.013049224 -0.00638533 -0.0031882536 0.012134197 0.009894721 -0.007342081
-0.006574505 -0.005714493 0.0 0.0 -0.005921653 0.00043227267 0.016828189 0.0
-0.014639349 0.001633596 -0.0030870275 -0.001022996 0.022640208 0.011832189 -0.012736683 0.013861708
-0.0060048625 -0.0100301355 0.024183234 -0.0027988036 -0.007725865 -0.012471777 -0.010672864 0.008094983
-0.002929226 0.0 -0.007079388 -0.0053283824 -0.00079230097 0.011150987 -0.00918839 0.0
-0.0027698332 0.0 0.0027923835 -0.006005188 0.00025351805 0.0 -0.010165236 -0.012402259
0.013490191 0.014130155 0.0 -0.006004984 0.010792595 0.0 0.008889507 0.007052298
0.013267786 -0.007967424 -0.020110141 0.019617606 0.008058637 -0.0038131168 -0.008068063 -0.019221589
0.0 0.027727988 0.0103478115 0.0030799517 -0.00786223 -0.0143757695 -0.019165663 -0.0057139285
0.016353752 0.015739987 0.012392547 0.012674582 -0.010630286 0.006280169 -0.002169396 0.008760091
0.012290825 0.010786904 0.014869999 0.007875162 0.0 0.0 0.018057482 -0.0039757765
0.0046918923 0.0 0.012346538 -0.0039637173 -0.0033620088 0.0016289741 0.007636695 0.0062394408
-0.005152781 0.0009767511 0.015943883 -0.006399719 -0.0012089433 0.003471058 0.017594822 0.006605954
-0.018229205 0.0 0.012181308 0.009340789 0.00065656105 0.0024988493 0.0 0.0
-0.011659029 -0.0013159727 -0.0051863203 0.0 0.002398896 0.0049531735 0.0 0.006435425
-0.0040533324 -0.0074329097 0.008175327 0.009120873 -0.0024207581 -0.016867412 0.0031679026 0.018509025

sequential_1/conv2d_5/BiasAdd/ReadVariableOp f4 [32]
00000000: 5a73 b6bb aae4 103d d2da 3dbc 508b 7fbc
00000010: 48f0 8bbc 3294 96bc 004f 9abc a95c 80bc
00000020: 4b1b 823c 3788 033c 5107 cb3a 8030 5dbb
00000030: 3b2a 8c3c b2ab 22bc bc9d c4bb be61 a03c
00000040: 8ccc b03c 4621 2dbc e0b8 c8ba c819 1bbb
00000050: 55de 6e3c af5a a13b 7c01 983c 7bff 4b3c
00000060: 84ad 9cbb d844 99bc be0a fbbb af55 e9bb
00000070: f7cf c73b f912 0bbc c715 48bb f074 4f3c
-0.00556795 0.03537432 -0.011587815 -0.0155971795 -0.017082348 -0.018381212 -0.018836498 -0.015669184
0.015882155 0.008028082 0.0015489851 -0.0033750832 0.01710998 -0.009928631 -0.0060002487 0.019577857
0.02158191 -0.010567015 -0.0015313886 -0.002366649 0.014579375 0.0049241404 0.018555395 0.012451048
-0.004781427 -0.018709585 -0.0076611927 -0.00712081 0.0060977894 -0.00848841 -0.0030530558 0.012662157

sequential_1/conv2d_4/BiasAdd/ReadVariableOp f4 [32]
00000000: f668 11bc bd60 cabb f182 afbc 9753 0cbc
00000010: 3812 9d3c 078c 9fbc 947e 4fbb 10f2 bc3c
00000020: c7a2 563c 31cf 8dbc 66b8 cdbc d23b a5bc
00000030: 0ee5 273c 58d6 acbb be94 3ebc 4205 20bd
00000040: 663f 9bb9 1c2b e0ba d714 0bbc 0b4d f23c
00000050: 5775 b0bb 74a2 543b 6ea5 21ba 09c5 883c
00000060: aba0 b6bb b2da 9dbc c592 dfbb a7ad aebb
00000070: f773 bbba 5ce8 cb3c 7884 fdbb 2a36 c0bc
-0.008875122 -0.006176083 -0.021424742 -0.008564851 0.019173726 -0.01947595 -0.003166114 0.023064643
0.013100333 -0.01731071 -0.025112342 -0.020170126 0.010247482 -0.005274575 -0.011632143 -0.039067514
-0.0002961114 -0.0017102691 -0.008488855 0.029577753 -0.0053850817 0.0032445462 -0.00061663135 0.016695516
-0.0055733523 -0.019269321 -0.006822916 -0.0053307596 -0.0014301528 0.024891071 -0.007736739 -0.023463327

sequential_1/conv2d_3/BiasAdd/ReadVariableOp f4 [32]
00000000: 6550 1cbd 04e4 76bc fb39 113a 925d b5bc
00000010: 0c40 ff3c 3439 26ba febd 40bc 2410 1eba
00000020: ac09 653c 718d 83bc 63bb ee3c 5d4d 51ba
00000030: f330 19bd abe7 03bd b6de ed3c 7695 76bc
00000040: 96f1 21bd 41d1 60bc 1dd5 273c c886 083d
00000050: 7512 33bc 4e11 933c b084 e83a 24e4 b93c
00000060: 0d7c 453b d9ab f5bc 5eaa 0fbd 976e eb3c
00000070: 396e a53c 037b 1dbc ff81 443c 9f6b 903c
-0.038162608 -0.015069012 0.0005539951 -0.022139344 0.03115847 -0.00063409214 -0.011764048 -0.0006029627
0.013979357 -0.016058655 0.029142087 -0.00079842453 -0.037400197 -0.032203358 0.02903686 -0.015050283
-0.039537035 -0.013721765 0.010243681 0.033331662 -0.0109296935 0.017952587 0.0017739739 0.022691794
0.0030133754 -0.02998917 -0.035074584 0.028739257 0.02019416 -0.009611848 0.011993884 0.017629443

sequential_1/dense_3/MatMul f4 [128, 128]
00000000: 617b 81bc 5e0a a9bd 70ee 713d e5f4 b6bd
00000010: 5a34 633d 8885 423d e2df 14be da92 c23d
00000020: f803 1abe 0caa 5a3d 800a 13bd 53ce dbbd
00000030: 410c b8bd f839 74bd 17a9 093e cdfe e0bc
00000040: 6628 8fbd 595b 17be 0803 e0bd 110c 7f3d
00000050: 700f 9bbc 9708 013e 56e0 32bd 8444 043d
00000060: 9dae 64bc 9c82 833d 1276 bc3d e6d7 1ebe
00000070: af5a 1a3d 7e59 adbd 8cd5 163d 1f60 153d
00000080: 03e5 b63d 22b7 bbbd a031 e9bd 0edf 1bbe
00000090: 0a59 223d fde2 3e3d 4048 ddbd 7244 0abe
000000a0: ad01 99bd 12b8 1fbe 50bb 6b3c d07c 1cbe
000000b0: cbae 273d 2663 b33d 3b00 133e a852 09be
000000c0: 532f eebd c45f 03be 9ac4 19be 92ad 363d
000000d0: be39 db3d 1d87 b3bd 6233 b63d 7ad6 d93d
000000e0: 00d4 833d 9ca5 b13d 5ce8 143e d865 063d
000000f0: 5aa3 90bc aa95 4b3d 126c 793d 11cb a83c
00000100: 74b6 da3d b8a3 1ebd c083 f4bb 5ad2 a8bc
00000110: 1655 dabd 7443 c13d 8c77 1dbd 3536 0bbe
00000120: 3dc4 f53d 093c efbd f20e 983d 91b1 97bd
00000130: cbe5 cfbc 5ff1 0d3e e06c f43b 875d c63d
00000140: 2a39 20be b0fd d23d 7624 5abd c721 cb3d
00000150: fd0d 11be bbe3 bebd 8df9 d0bd 44ed bb3d
00000160: e63a b03d e8c6 aebc 7a1f 04be d6c1 efbd
00000170: e895 9aba 136c 21bd b48c d83d 9e55 bb3d
00000180: a00b b6bd 690c e2bd d25d f93d 9326 09be
00000190: 01d8 163d 9612 b2bd 6900 8fbd a883 21bd
000001a0: 1f8d 2a3d 04e9 c7bd 832c c73d 9a71 a3bd
000001b0: fd01 d43d a708 e5bd fd58 163e 9009 17be
000001c0: ae3c b2bd c68f ab3c 03a0 77bd 6758 11be
000001d0: c1af 96bd 751b b23c c54e 053c 0040 fd3a
000001e0: 0b52 b83c 119a 1c3e 1773 b13d e001 083b
000001f0: 0d63 a0bd cfd3 9c3d b4e9 683d d255 f23d
00000200: 6d6f 013d 378a 3ebd 81c5 0d3e 693a 0d3e
00000210: 6cfe c8bd 6818 c13d 5992 28bd 46c1 fa3d
00000220: 9601 3bbe a1c3 183e 225d 9a3c 1008 693d
00000230: 43a5 19bd 9516 abbd fc9b c6bd 4998 803d
00000240: 9266 b13d 954c e4bd 44fd dd3c b60b b9bd
00000250: 193d 103e 0513 debd f07b 27bd 53ec c6bd
00000260: 29be 943c c961 d9bc ac54 b0bd e09c 57bd
00000270: ff90 7a3d 7d0e b93c 8684 d73d 8101 813c
00000280: 7fe6 6bbc 6698 1bbe 71fd d1bd d7b8 16be
00000290: 276f 1f3d cd53 e33d b198 1abe 50d1 97bc
000002a0: 8a88 c03d 7e90 a53d 0daf be3d 444b eebd
000002b0: 9baa 3cbc 3a12 093e 4b53 dcbd 279e f5bd
000002c0: 5f93 f73d c192 073e fd9a 2dbd 7677 5cbd
000002d0: 690c 883d 1d24 da3c ec1a eebc 0f05 a8bd
000002e0: 9542 0a3e 4db5 1a3c 0b3e d13d 747c b0bc
000002f0: 064f b4bd 3a7a 153e 3fe8 053e cfa1 863d
00000300: 215d 373a 2c91 303d ebc1 fb3d 02d6 5cbd
00000310: a45d eb38 6085 033e d6ce 553c c676 a3bc
00000320: 27b5 b03b 63b7 e43d 8405 f73d a192 34bd
00000330: 325b c4bd 7a4a 0ebd b596 bdbd 8d69 ef3d
00000340: 3419 29be 9555 a73d 83c1 50bd c2f2 df3d
00000350: 85b9 4cbc f40c 8cbd 8ae0 443d 1d4d a13c
00000360: b9f8 23bd 7252 6ebd d60b 05bd d7d1 e13d
00000370: 3142 b0bd 0c3c 843d b378 cabd 56f1 28be
00000380: 7ac3 a4bd a449 4b3d 83cc 053e ed84 843d
00000390: 366c 41bd fd30 b43c 2f65 66bd 5865 27bb
000003a0: d7ad 21be 103d ddbd 757b 3a3c 5736 5c3d
000003b0: 2a65 14bd 7408 0d3d 1eeb d03d 7c69 e23d
000003c0: 56d7 c8bd dd18 adbd 5b81 cb3d 9c26 29be
000003d0: 4a4b b23d f616 68bc 49a5 b5bd 0343 c2bc
000003e0: f96c a2bd fed3 c2bd ec41 623c 8fd6 c0bd
000003f0: e6ea 803c 10d5 43bd aeb9 2cbd 6964 a8bd
-0.015805902 -0.082539305 0.059065282 -0.08933429 0.05546985 0.047490627 -0.1453853 0.09500666
-0.15040576 0.053384826 -0.035898685 -0.107327126 -0.08986712 -0.059625596 0.13443409 -0.027465248
-0.06990127 -0.1478094 -0.10938078 0.062267367 -0.01892826 0.12600933 -0.043670975 0.032291904
-0.013957647 0.06421396 0.092022076 -0.15512046 0.03768414 -0.08464335 0.036824748 0.03646862
0.08930399 -0.09165789 -0.11386418 -0.15221807 0.039635696 0.04660319 -0.10804796 -0.13502672
-0.07471023 -0.15597561 0.0143879205 -0.15281987 0.04093818 0.087591454 0.14355557 -0.13410437
-0.1163012 -0.128295 -0.15016404 0.044599123 0.10704373 -0.08766005 0.08896519 0.10636611
0.0643692 0.086741656 0.14541763 0.03281197 -0.017656017 0.049703278 0.06089408 0.020604642
0.106793314 -0.038730353 -0.007461995 -0.020608116 -0.1066076 0.09436694 -0.038444087 -0.13594897
0.1200032 -0.11681373 0.074247256 -0.07406915 -0.025378129 0.13861607 0.007459268 0.09685808
-0.15646806 0.10302293 -0.053257428 0.09918552 -0.14165492 -0.0932078 -0.10203848 0.09176114
0.08604984 -0.02133508 -0.12902632 -0.11706893 -0.0011793943 -0.03940971 0.10573712 0.091471896
-0.08888936 -0.11037523 0.12176098 -0.13393621 0.03682709 -0.08694951 -0.069825 -0.039432198
0.04163849 -0.09761241 0.09725287 -0.07980652 0.10351942 -0.11183291 0.14682384 -0.14749742
-0.0870298 0.02094258 -0.060455333 -0.14193879 -0.07357741 0.021741608 0.008136456 0.0019321442
0.022500059 0.15293147 0.0866453 0.002075307 -0.078313924 0.07657587 0.0568635 0.11832775
0.031600405 -0.04651853 0.13844873 0.13791813 -0.09814152 0.09428483 -0.041155193 0.12243895
-0.18262324 0.14918377 0.018843237 0.056892455 -0.03751112 -0.083539166 -0.096977204 0.06279046
0.08662142 -0.11147419 0.027098306 -0.09035437 0.14085807 -0.108434714 -0.04088968 -0.09713044
0.018157082 -0.026535885 -0.086099 -0.052639842 0.061173435 0.022589916 0.10523324 0.015747787
-0.014398216 -0.15194854 -0.10253418 -0.14718948 0.038924363 0.11099968 -0.1509731 -0.018532425
0.09401043 0.080842 0.09310732 -0.116354495 -0.011515285 0.13385859 -0.107580744 -0.11993056
0.12088656 0.13239576 -0.042384136 -0.053824864 0.06642992 0.026628548 -0.029065572 -0.0820409
0.13501962 0.00944264 0.10216912 -0.021543719 -0.08804135 0.14597407 0.13076876 0.06573831
0.0006994773 0.043107197 0.12292846 -0.05391503 0.00011223115 0.12843847 0.013049802 -0.019954097
0.005392689 0.11167791 0.12061599 -0.04408515 -0.095877066 -0.034738995 -0.09257261 0.11690054
-0.1651352 0.0817062 -0.050965797 0.10934974 -0.012495403 -0.06838408 0.0480657 0.01969009
-0.040032122 -0.058184095 -0.03248199 0.11026352 -0.08606375 0.064567655 -0.09886303 -0.16498312
-0.08045097 0.049630776 0.13066296 0.06470666 -0.04722234 0.021996016 -0.05624884 -0.0025542583
-0.15788971 -0.108026624 0.0113819735 0.05376276 -0.03622929 0.03443189 0.10201095 0.11055276
-0.09806697 -0.08452008 0.09936782 -0.16518635 0.087057665 -0.014165631 -0.08869416 -0.023713594
-0.07930941 -0.095130906 0.013809662 -0.09415924 0.015737008 -0.047810614 -0.042169265 -0.08222277

sequential_1/dense_4/MatMul f4 [3, 128]
00000000: 79fa 76b8 d0fd dc3d 3115 273e bda7 ba3d
00000010: ceb0 febd 098e 093e d29b 213e 6021 72bc
00000020: c4b1 493e 6a02 293d a8dd 14bd 0eae 23be
00000030: cdcf 713c c64b 41be da3b 4d3e 3672 0cbe
00000040: 6dbe b33d 0fce 743d ec88 7a3e a7aa 093e
00000050: c282 283e 1956 33be 4412 4b3d 23e0 523e
00000060: cd15 243e aeb4 28be ea92 de3d dfd4 30be
00000070: 6cb9 38be 7739 05be 47e3 843d 686c 20be
00000080: 2a36 1c3e f73a 0a3e 4520 fe3d 1984 5e3c
00000090: 8e70 6ebd be6b e9bb 034b fbbd 7408 1dbe
000000a0: 3114 febd 146e 163d fda5 0dbd d9e2 0b3e
000000b0: a1ad 57be 5f89 573e 6f06 c2bd e42c 24be
000000c0: bb20 b3bc 1ffd d0bd e742 013e fc38 b53d
000000d0: e246 9d3a f0ed c2bc 6e0a 34be 8a8c b3bd
000000e0: b8c6 f53d b635 163e 5ba7 88bd e6da 443e
000000f0: ebf7 42be eeb2 19be be6a 3e3e 2f31 b9bd
00000100: 1684 ca3d 2d52 dc3d 5162 5a3e 6d64 5e3e
00000110: 73fc 2abd 7b8c bb3d 7b4d 1f3e 69bf 47be
00000120: 765b 833e 098d 193e f7a9 cabd bb6c 12be
00000130: c215 09be a14b 88be 9e90 253e 36ee aabd
00000140: f7c6 2e3e cb71 413e df75 c23c 0c2b b23c
00000150: 4f4a e7bd bd45 293e cd3a 733d e865 503e
00000160: 9c46 a3bd a281 84bd 3a77 3e3e 16ab 23be
00000170: b182 ef3d 62e3 04be 7528 e1bd 1852 e1bc
00000180: 3e9c 20be 2de0 cc3d b18a a6bc 1e49 1abe
00000190: 1787 12bd f9f2 5ebe 584d 6f3e 3105 573e
000001a0: 121f c8bc 6f25 033e 421e 34be d8ef 5e3d
000001b0: ad01 533e 80ef d13d e0a8 f6bb 900c 9d3c
000001c0: ac8c f53d 88c5 4e3d 2dc1 313e 7961 efbd
000001d0: c2cd 563e 2deb efbd 58eb f23c df60 323e
000001e0: b75e 463e 9391 53be b7e3 573e 3004 3d3e
000001f0: 0fc7 77be 8b1c d2bd b211 53be d4de 4e3e
00000200: 0c82 933d 5219 2d3d 1956 2e3e f8c2 c7bd
00000210: 6633 263e 8e2f 85bd 9d59 2abe ada8 183e
00000220: fd77 5ebd 38e6 d0bc 76df 9e3d a9e4 003e
00000230: fe12 3d3e d322 9fbd 561b 24bd 406c 9abc
00000240: c712 383e a19e a2bd b3a3 57be d84d 123e
00000250: 9566 52be bc0a bc3d 0d7b 59bd fbd5 2fbe
00000260: b0e9 50be 26e5 333e 9dc1 223d e1e6 123e
00000270: a202 81bd 7edc 3ebd fa6b 1d3e 436a 41be
00000280: e643 3b3e b0ec f8bc 0dae d3bd bc6b 5e3e
00000290: 5db4 883d 2b50 443e 75c1 e83d f48a 743d
000002a0: 24a2 7e3e 64bc 0dbd d7c8 8cbd 9513 52be
000002b0: d83b 4d3d 3cd4 6e3d c574 24be c355 483e
000002c0: dbf7 d7bd d3da 2abe 070d f8bd 15c8 32be
000002d0: b226 0fbe c2bd d43d bbcd 33bc acab b83d
000002e0: c91e 6d3d 3332 143d c2be 1fbd f9ff 18be
000002f0: 58f0 2ebc 131c 5d3c 7f01 9abd 7a12 9c3d
00000300: 78fa 6dbd bd61 63bd 2ff3 55be fbc4 333e
00000310: 2f7c 013e 59b1 033c 5d96 413e c926 dabd
00000320: 7e64 25bd 663f 42be dfc0 60be 6b34 9b3d
00000330: bd91 553e 4e12 fb3d aec4 37bc 668a 36bd
00000340: 2df0 46be cf8d 5d3e 1dbb 21be 2c50 01be
00000350: 7075 ad3c f47a 1d3d c893 07be 2423 473d
00000360: 253d 68be 9777 233e 98d1 f53b 2fb3 833d
00000370: 4285 adbd f2dc 0b3d e6db ab3c cd23 033e
00000380: d69e 3fbe 09a9 28be ee19 1cbe 3649 17bd
00000390: 7f6b 0fbe 9171 e1bd e9ca cfbc afc7 60be
000003a0: 2bd4 a13d 5ec1 0cbe 572b 48be a09f 0f3e
000003b0: 2947 11be 1e51 123d 95c3 d3bd cc75 5abd
000003c0: f262 413e 8dc8 093c 11ca 803d 8c1d 4cbd
000003d0: 05ec 95bc dadd a83c 5375 ccbd e063 6cbe
000003e0: 4473 693e 22af 62ba add2 1b3e 01e0 16be
000003f0: 6624 233e b7ba 463e e584 e63c 1e07 55be
-5.888424e-05 0.107905984 0.16316678 0.09114025 -0.124360666 0.13433088 0.15782097 -0.014778465
0.19696718 0.041262068 -0.0363442 -0.15984365 0.014759016 -0.18876562 0.20042363 -0.13715443
0.08776555 0.059766825 0.24466294 0.13444005 0.1645613 -0.17513312 0.049577966 0.20593314
0.16023941 -0.16475174 0.108678654 -0.17268704 -0.18039483 -0.13010202 0.06488662 -0.15666354
0.15255037 0.13499056 0.12408499 0.013581299 -0.05821281 -0.0071234396 -0.12270167 -0.15335256
-0.12406195 0.036726072 -0.034582127 0.13660754 -0.21062328 0.21048497 -0.09473883 -0.1603275
-0.021866193 -0.10204529 0.12623177 0.088487595 0.0011999274 -0.023795098 -0.17582104 -0.0876704
0.12000793 0.14668927 -0.066725455 0.19224128 -0.19039886 -0.15009663 0.18595406 -0.09042584
0.09888475 0.10757861 0.21326567 0.21717997 -0.04174466 0.09157654 0.155569 -0.19506611
0.25655717 0.14995207 -0.098956995 -0.1429929 -0.13387206 -0.266202 0.16168448 -0.083462164
0.17068087 0.18891065 0.023737846 0.021749042 -0.1129347 0.1653051 0.05938225 0.20351374
-0.07972452 -0.06470038 0.18600169 -0.15983233 0.11694849 -0.12977365 -0.10994045 -0.027504966
-0.15684602 0.10003696 -0.020329805 -0.15066954 -0.035773363 -0.21772374 0.23369348 0.20998074
-0.024428878 0.12807249 -0.17589667 0.05442795 0.20606108 0.10250759 -0.0075274557 0.01917103
0.11989722 0.05048135 0.17358847 -0.11688513 0.20976928 -0.11714778 0.029653236 0.17419766
0.19372068 -0.20661001 0.2108296 0.18458629 -0.24197029 -0.102593504 -0.20612219 0.2020219
0.07202539 0.042260475 0.17025031 -0.09753984 0.16230544 -0.06503211 -0.16635747 0.14908095
-0.05431365 -0.025500402 0.077574655 0.12587227 0.18464276 -0.07770314 -0.040065132 -0.018850446
0.17975913 -0.07940412 -0.2105854 0.14287508 -0.20546944 0.09181735 -0.053095866 -0.17171471
-0.20401645 0.17567882 0.039735425 0.14345886 -0.0629933 -0.046596996 0.15373221 -0.18888192
0.1828762 -0.030386299 -0.10335932 0.21720785 0.066750266 0.19171207 0.11365024 0.05970283
0.24866539 -0.03460349 -0.06874245 -0.20515282 0.0501059 0.05830787 -0.16060169 0.19563965
-0.105453216 -0.16685037 -0.1211186 -0.17459138 -0.13979605 0.10387756 -0.010974343 0.09017119
0.057890687 0.036180686 -0.03900028 -0.14941396 -0.01067742 0.013495463 -0.075198166 0.076207116
-0.058100194 -0.055513132 -0.20893548 0.17555611 0.12645029 0.008037888 0.18905015 -0.10651929
-0.04037904 -0.18969497 -0.21948574 0.07578357 0.20856376 0.12259351 -0.011216326 -0.04456558
-0.19427557 0.21636127 -0.15794034 -0.1262824 0.021174163 0.038447335 -0.13239968 0.048617497
-0.22679575 0.15963589 0.007501792 0.06430661 -0.084726825 0.034146257 0.02097888 0.12806626
-0.18712935 -0.16470732 -0.15244266 -0.036935054 -0.1400585 -0.11007989 -0.02536531 -0.21951173
0.07901796 -0.13745639 -0.19547783 0.14025736 -0.14187302 0.03572189 -0.10340039 -0.053334996
0.18885401 0.008409631 0.06288541 -0.049832866 -0.01830102 0.0206136 -0.09983315 -0.23084974
0.22797877 -0.00086473126 0.15217085 -0.14733888 0.15931854 0.19407164 0.02813954 -0.20803496

sequential_1/conv2d_4/Conv2D f4 [32, 3, 3, 32]
00000000: 0ef4 803d d072 2c3d a8fc 373c a984 70bd
00000010: d866 883d 0686 a0bd c1ff e73b 7c6e 2e3d
00000020: 108e b9bd ddde f33c a0f6 b9bd 717c 693d
00000030: 03de 7839 b17a 8c3d 3b9f 0abd 9daf 443d
00000040: 88d5 b53c 7ed3 ebbc 3ed8 c2bd 8099 d03c
00000050: 6a46 b23d 8635 783b 34c7 e13c e7d0 c5bc
00000060: 6af0 16bd 77f6 e1bd c629 d03c 456f c73c
00000070: 00a3 3b3d e387 d23c b0e6 813c 31e0 723c
00000080: 04e7 cd3c 3db8 9cbd 8ecf c3bd c4ee b6bd
00000090: 302a 87bd 9476 9b3c a9ce cabc 8680 7fbd
000000a0: 5f27 d5bd aa71 3f3d bd55 863d e375 26bd
000000b0: c1ba 263d 83e4 80bc 90fd 4cbd 0444 4bbd
000000c0: b385 b03d b9d1 093d 20ea 153d 129a 0c3d
000000d0: 263c 95bc cb06 bb3d a07b 75bd 308b 6dbd
000000e0: 5261 403b dea8 c4bc d768 863d 841a 87bc
000000f0: d766 7dbc a9c8 643d 31ca 01bd cc33 b63d
00000100: 73a8 b1bd 79e0 a83c ddbc afbd 329d a03c
00000110: d95f e0bc 1256 03bd 2c5a 30bd 9b07 24bd
00000120: 002d 803d 3587 5fbd 9260 5d3d 0fe5 a53c
00000130: 5766 1e3b 63b8 a63d 87cc 803d f254 863d
00000140: a2a4 b63d 4926 113d 610a d0bd d7cc cbbc
00000150: 5e59 443b a27e a5bd f32c cb3d 6fa5 a03c
00000160: d5af 1dbd 4b82 1bbd ec12 2fbd b879 723b
00000170: 8b67 2a3d 83f3 0b3d 3123 0dbd 4df4 afbd
00000180: 8220 30bc fd05 9b3d 6165 7b3d 6f80 5ebd
00000190: fe34 e7bc 8d71 7ebd 7af7 8abd 383a e0bc
000001a0: 94e6 5fbd 38f3 8c3d 9e50 0abc f1a2 bc3d
000001b0: cdc3 f3bc 8b7e 123d aca6 b6bd 65a3 663c
000001c0: 3a0f b7bd 9442 843d 38d0 843d 46ef 493b
000001d0: 3278 86bd 0046 ccbd 2696 e1bb ddd8 6fbc
000001e0: 849c fd3b f85c 77bc f2c8 8c3c ef50 c03c
000001f0: 9326 95bc 1322 e0bd 71f7 45bd 1685 1ebd
00000200: 736d b23d 5c1b fe3c ed06 8f3d 6b0e 27bd
00000210: f52e 79bc 004c 7c3d 75d5 01bd e4a6 833d
00000220: 328e 10bd f4da 56bd f0ca 80ba 7a70 193d
00000230: 0148 89bd 32e2 b13d f5b4 5b3d b8e6 ca3d
00000240: c7f6 a1bd 2cf4 5cbd 21a7 f0bb a4ba fabc
00000250: 25fe c03d 84a7 b83d 0da4 b53d 7025 d8bd
00000260: fdd0 aabd 0ee9 453b 3009 d63c c112 4f3d
00000270: aba0 1d3d 38ad c93d 456d 303b cca5 3ebd
00000280: 830d 34bd 4a81 353d d933 05bd 86c9 6dbd
00000290: d9f9 203d 2b0a 92bc c6c7 79bd bc36 c3bd
000002a0: 32d9 93bd 1100 d2bd a5f9 793c 18cf b0bd
000002b0: cd9b b13d 4b55 763c 7ad7 c33d d678 79bd
000002c0: cff6 b2bd 6a7c a6bd b5cf adbd 46fb 84bb
000002d0: 301a afbd bc20 0e3c d993 783d 76e2 85bc
000002e0: f276 dfbd fa76 89bd 72a4 04bd 9ce0 0b3d
000002f0: ba04 b53b ff6a 093c 2cd9 493d 7c34 873d
00000300: 4ad7 1bbc 0925 4dbd fb94 eebc 07e7 873d
00000310: 405e 8f3d 8248 ca3d 34d1 adbd e433 b93d
00000320: d490 cb3d 2342 943c c1c4 b73d 8b69 33bd
00000330: 66e0 c0bd 0080 d0bd ce77 36bb f681 dabd
00000340: 7050 75bd ece2 b23d 19ee 153d 3003 a5ba
00000350: 9077 ab3c c213 dcbd 2b13 023d 5d8c a6bd
00000360: 1d55 7e3d 2cb8 8abc 1aa1 edbc 1c4f 42bc
00000370: 68eb 7b3c bd6d 94bd dfb0 e1bd 13ec 863d
00000380: a615 263d e0b2 32bd 448a dcbd 23fa a83d
00000390: e6ab b73d d2a9 9f3a 48ab 8fbd 20ae adbc
000003a0: 2cf8 053d 6c77 59bd 73e5 dc3c 3e1f 84bc
000003b0: c95d 063d aab9 22bd 3548 ac3c 61af 533d
000003c0: f6dd 3e3c 0c19 243d 3b29 43bd 14a2 6fbd
000003d0: 55ef c53d 723d 4bbd e0a7 633b f6d3 a93d
000003e0: d6ca 2ebd 95ef 463d 293e 90bd 2850 7abd
000003f0: 188d 47bd 4daf 5fbd c511 68bd af85 5d3c
0.0629655 0.04210168 0.011229672 -0.058720265 0.06660241 -0.07838063 0.007080049 0.042585835
-0.090602994 0.029769355 -0.09080243 0.057003442 0.00023733829 0.06859339 -0.03384326 0.04801904
0.022196546 -0.02878737 -0.09513901 0.02546382 0.08704837 0.00378737 0.027560808 -0.024147464
-0.03685037 -0.110333376 0.025410544 0.02434505 0.045809746 0.025699561 0.01585707 0.014823959
0.02513457 -0.07652328 -0.09561072 -0.0893226 -0.065998435 0.01897744 -0.024756746 -0.06237843
-0.104079 0.046739258 0.06559322 -0.04063977 0.040705446 -0.015733963 -0.050046504 -0.04962541
0.08619251 0.033647273 0.036600232 0.03432662 -0.018217158 0.09132155 -0.05993235 -0.057994068
0.0029354882 -0.024006303 0.06562965 -0.016492136 -0.015466413 0.055855427 -0.031686965 0.08896598
-0.08674707 0.02061485 -0.08580945 0.019606207 -0.027389454 -0.032064505 -0.043054745 -0.040046316
0.06258583 -0.054572303 0.054047175 0.020250825 0.0024169886 0.08140638 0.062890105 0.06559171
0.0891812 0.035436902 -0.101582296 -0.024877949 0.0029960494 -0.08080794 0.09920683 0.019610135
-0.038497765 -0.037966054 -0.042742655 0.003699882 0.041602653 0.034167778 -0.03445739 -0.085915186
-0.010749938 0.075695015 0.06137598 -0.054321703 -0.02822351 -0.06212001 -0.06785484 -0.02737151
-0.054663256 0.06882328 -0.008442072 0.09210766 -0.029756451 0.035765212 -0.08918509 0.014077042
-0.08938451 0.06458011 0.06485027 0.0030812784 -0.06565894 -0.09974289 -0.006884354 -0.014639107
0.0077396054 -0.015097849 0.017185662 0.023476092 -0.01820687 -0.10943999 -0.04833168 -0.03870114
0.08712282 0.031018905 0.06983743 -0.040785234 -0.015208949 0.061595917 -0.03169771 0.06428316
-0.035291858 -0.052454904 -0.0009826105 0.03746078 -0.06703187 0.086857215 0.05363937 0.09907287
-0.07908397 -0.053943798 -0.007344142 -0.030606575 0.09423474 0.09016326 0.08869181 -0.10554016
-0.083406426 0.0030198726 0.026127428 0.050554994 0.038483303 0.09847492 0.0026920598 -0.046544835
-0.0439582 0.044312753 -0.03252015 -0.058053516 0.039300773 -0.017827114 -0.060981534 -0.09531924
-0.07219161 -0.10253919 0.015257274 -0.0863325 0.08672295 0.015034984 0.09562583 -0.060906254
-0.08738481 -0.08129199 -0.084868826 -0.0040582744 -0.08549917 0.008674797 0.060687874 -0.016343337
-0.10911359 -0.06712146 -0.03238339 0.03414975 0.005524245 0.008387326 0.049279377 0.066018075
-0.009511778 -0.050084148 -0.029123774 0.06635862 0.07000399 0.09877111 -0.08487168 0.090431005
0.09939733 0.018097943 0.08973075 -0.043801825 -0.094178006 -0.10180664 -0.0027842405 -0.10669319
-0.059891164 0.08734688 0.03660402 -0.0012589451 0.020931035 -0.10745956 0.03175656 -0.08132241
0.06209289 -0.016933523 -0.029007483 -0.011859681 0.015375949 -0.072474934 -0.110200636 0.06587996
0.04054799 -0.04362762 -0.107685596 0.08250835 0.08968334 0.0012181348 -0.07015091 -0.021201193
0.03270738 -0.053092405 0.026964879 -0.016128179 0.032804284 -0.039727844 0.021030525 0.051680926
0.011649599 0.04006295 -0.047646742 -0.05850418 0.096647896 -0.049619146 0.0034737512 0.082923815
-0.04267391 0.048568327 -0.07043106 -0.0611116 -0.04871854 -0.05461054 -0.05665757 0.013520642

sequential_1/conv2d_5/Conv2D f4 [32, 3, 3, 32]
00000000: 6c5c b33d 4d9c 0ebd c7fa 09bc 3040 b23d
00000010: 765c 16bd d5bd cbbd 95b3 053c fbfa 87bb
00000020: 310b 6b3d 350f a23b 2295 e6bc 55ed 643d
00000030: 2b6d d1bd 38cd 533d a503 273c 88d9 55bc
00000040: 0026 093d 210a c13d 0010 2bbb a6d8 f2bb
00000050: 1871 4e3d 9ded de3b c7be 50bd 29fb 56bc
00000060: 445e b7b8 b629 ae3d bcf6 b4bc b3ec c7bd
00000070: c615 00bd 1b59 a23b a7bb cebc 7ab3 34bd
00000080: e829 15bc 3eeb c23d 4d13 80bd 0f75 c4bd
00000090: 2399 153c 70ff 82bd 2a76 cd3b 9d8a cabd
000000a0: b015 b23d 0989 1abc b085 a33a 38c1 9cbc
000000b0: 5fcd af3d c069 a53d 1407 dbbd bb38 993d
000000c0: 83fe eebc ebd4 f43c a801 71bc fcca a93b
000000d0: 780e 64bc 31e7 adba 574c 81b9 c7f0 7abd
000000e0: 6e2b 743d 3c85 7bbb bbe2 b6bd 207f 173b
000000f0: 7114 3e3d a200 b33d 28e8 593d b3dd 17bd
00000100: 6db5 b2bd 7682 a43d 2f94 bcbd e2fb 2a3d
00000110: bb6d 9cbd be52 ecbc 27de e2bc 4b80 ff3c
00000120: 61a4 673c c633 f93c a7c5 393d a567 2fbd
00000130: 6395 bfbb 2006 103c cf85 b83d e008 33bd
00000140: 9fdb d2bd 5bd7 1f3c 5cc2 8a3d 366a fd3c
00000150: 50f1 8fbb 89cb a0bc c0d4 3abd 5805 5dbd
00000160: ab17 693d b3b2 a63d ca54 c93d 3811 543d
00000170: 430a c9bc 4880 c43d 5f7c d6bd f18d a5bd
00000180: e8a0 fcbc 502c 9ebd 6011 a6bd 0d11 8bbc
00000190: 458d b73d b901 7f3d 1c08 8ebd 94d2 a6bd
000001a0: 1b01 a23d f4f4 913d 52d3 e2bc 7d5b 38bd
000001b0: 5866 8c3d 7ee8 6fbd 20e4 8b3d e9da ccbd
000001c0: 46da 61bc 1b21 c73d e887 a93d f9ad d53d
000001d0: 8099 43bc be8d 8d3d 17fa 65bc 81d0 60bd
000001e0: bd03 c93d 3ad9 d93c 864e aa3d 38c6 bbbd
000001f0: aaa0 833d e364 babc 03cb c5bd 841b 9f3d
00000200: 0666 ab3d 4095 603d bd01 88bd b968 f53c
00000210: b468 5ebd 697b 8fbd fb56 bc3c a510 d6bd
00000220: c7bd 043d 58df eaba 8323 7c3d 68a0 da3c
00000230: 0db1 a23d 7c79 7f3d 3b0b b4bd fd29 34bd
00000240: 63fa 11bd 98d8 f43c d2ae 8d3d 19d4 843d
00000250: a0d4 99bd fb36 ba3d db4f b03d f069 d4bd
00000260: 66a1 9ebd 907a 10bd f84b a1bc 8af8 42bd
00000270: e0b7 33bd 5774 223d da0b 0f3c 61d3 7f3d
00000280: ee58 8a3d 5852 40bc 6a95 913d f04f f33c
00000290: 7a50 8abd 1578 533c 0cea a7bd a52b 23bc
000002a0: 0990 c1bd af01 9fbd fcc0 c3bd ffd3 e33c
000002b0: 5b43 a53c 19c1 a1bd d019 a53d c2d6 a0bd
000002c0: a010 6b3c 2b49 ab3d 108d cabb 17ef 73bd
000002d0: 1ac9 0dbd a84b 3dbd 0a4e 3bbd 8735 17bd
000002e0: af82 6fbd 3f5e 0abc 3a01 c43d 20b2 013d
000002f0: 1b32 00bd 7019 d3bd ef36 d3bd b48c 463d
00000300: a752 6f3d 43e3 78bd 9331 363d a353 c1bd
00000310: f7f0 22bd 7138 3dbb 73db e8bc c016 fabb
00000320: 7c26 1fbd 61f4 5f3c 96f0 57bc 8ea6 bb3d
00000330: e836 1b3c f6da ba3d 35db b0bd 91ba a6ba
00000340: c5e1 d83c d5cc 7dbd 40b9 893a f255 fa3c
00000350: f42a 683d c7df cfbb ce68 cebc e8e2 debc
00000360: b9de 453c 37d6 eb3c fd8c acbd 3c8c 64bd
00000370: d615 8dbd 7bd5 fabc 5f7c f13c c31b 81bd
00000380: 980c 46bd a45a c0bd 21bd babd eb35 c63b
00000390: 3e29 60bd 9b6c 99bd a1eb fa3c b8ca 85bd
000003a0: 47f1 7a3d 1a7c a6bd e1b1 b83d 0bdd 2bbd
000003b0: b4d1 e23b d4c2 9d3d a3e3 353d ce42 09bb
000003c0: 943c 44bd 410b 9bbd 1684 9d3d 7e9b 293d
000003d0: d05a 27bc d979 01bd 8faf 243d a686 cbbd
000003e0: 3d29 703d 656c 6bbd 00d8 97b9 28a4 aa3c
000003f0: 2d84 853d 2dff 723d 6bdf 433c 1c42 9bb8
0.087578624 -0.03481703 -0.008421606 0.08703649 -0.03670927 -0.09948317 0.0081604915 -0.0041497923
0.05738372 0.0049456605 -0.028147284 0.0558904 -0.102259 0.051709384 0.01019374 -0.013052352
0.033483505 0.0942576 -0.0026102066 -0.0074110804 0.050400823 0.006803228 -0.05096319 -0.013121405
-8.743678e-05 0.085040495 -0.022090308 -0.09761944 -0.031270765 0.00495447 -0.025235964 -0.044116475
-0.0091042295 0.09517525 -0.06253681 -0.0959264 0.009130749 -0.06396377 0.00627019 -0.0988972
0.08695543 -0.009432086 0.0012475755 -0.019135103 0.08584093 0.08076811 -0.106947094 0.074815236
-0.029174095 0.029886683 -0.014709868 0.0051816683 -0.013919465 -0.0013267753 -0.00024661675 -0.06126478
0.05961173 -0.0038378974 -0.08929964 0.0023116544 0.046406213 0.08740355 0.053199917 -0.037076663
-0.087260105 0.08032696 -0.09207951 0.04174412 -0.07638117 -0.028848048 -0.027693821 0.031189105
0.014138312 0.030420195 0.04535451 -0.042823453 -0.0058466657 0.008790523 0.09009897 -0.043709636
-0.10295796 0.009755935 0.06775352 0.030934434 -0.0043927804 -0.019628303 -0.04561305 -0.053960174
0.056907337 0.08139553 0.09830625 0.051774234 -0.024541026 0.0959478 -0.10472941 -0.08083714
-0.030838445 -0.07723296 -0.08108783 -0.016975904 0.08962492 0.062257502 -0.069351405 -0.08145633
0.07910367 0.07126799 -0.027688656 -0.045009125 0.06855458 -0.05857133 0.06830621 -0.10002691
-0.013784951 0.09723111 0.08277875 0.10433573 -0.011938453 0.06911801 -0.014036677 -0.054886345
0.09815166 0.02659284 0.083157584 -0.091686666 0.064271286 -0.022753185 -0.09657862 0.0776892
0.08369069 0.054829836 -0.066409566 0.029957162 -0.05429907 -0.070059605 0.022990694 -0.104523934
0.03240755 -0.0017919345 0.061557304 0.026687816 0.07943926 0.062371716 -0.087912045 -0.043985356
-0.035639178 0.029888436 0.0691811 0.06485767 -0.07511258 0.09092518 0.08608981 -0.103717685
-0.07745628 -0.035273135 -0.019689545 -0.047600307 -0.04387653 0.03966173 0.008730853 0.062457446
0.06755243 -0.011738382 0.071085766 0.029701203 -0.06753631 0.012907048 -0.08198938 -0.009959136
-0.09451301 -0.07763993 -0.09558293 0.027811049 0.02017372 -0.078981586 0.08061564 -0.07853462
0.014347225 0.08363565 -0.0061813667 -0.059554186 -0.034615614 -0.04621473 -0.04572872 -0.036916282
-0.05847424 -0.008445322 0.095705464 0.031664014 -0.031297784 -0.10307586 -0.10313212 0.04847403
0.058428433 -0.06076361 0.04448087 -0.094397806 -0.039780583 -0.0028872753 -0.028424954 -0.0076321065
-0.03885506 0.013669104 -0.013179919 0.09162627 0.00947354 0.09123795 -0.086355604 -0.0012720396
0.026474843 -0.06196292 0.0010507479 0.03055856 0.05668159 -0.006343815 -0.02519646 -0.027207807
0.012077027 0.028788669 -0.08425329 -0.0557978 -0.068889305 -0.030619374 0.02947825 -0.06304123
-0.048351854 -0.09392288 -0.09118105 0.006048908 -0.05472683 -0.07491418 0.030629935 -0.06532806
0.061265256 -0.08129139 0.09018303 -0.04195885 0.006921971 0.07703176 0.044406544 -0.002094436
-0.047909334 -0.07570506 0.07691209 0.041408055 -0.0102145225 -0.031610344 0.04020649 -0.099377915
0.058633078 -0.05747642 -0.00028961897 0.020830229 0.06519351 0.059325386 0.011955122 -7.40329e-05

sequential_1/conv2d_3/Relu;sequential_1/conv2d_3/BiasAdd;sequential_1/conv2d_5/Conv2D;sequential_1/conv2d_3/Conv2D;sequential_1/conv2d_3/BiasAdd/ReadVariableOp f4 [32, 3, 3, 3]
00000000: e52e 9339 3498 8938 3720 d039 fae9 ce39
00000010: 6ba3 ebb9 23db 9939 b719 d439 94a2 083a
00000020: 7b9b cdb9 49e4 8ab9 576f 04ba 5c8b da38
00000030: ef69 8d39 ef13 a137 4d02 a337 fb19 8d37
00000040: 324e 7339 6a57 e138 3e7f 8cb9 eceb 1839
00000050: df05 71b9 d1ef 68b9 f80a 3739 a8ed 1bba
00000060: f3ad 7939 0e6c c2b9 9c42 df39 5506 a9b9
00000070: a57e 29b9 63e5 363a bcba 9f39 14a1 153a
00000080: 9a95 b0b9 2cea 1ab9 281e 3739 b820 a239
00000090: 527b b3b9 2562 a338 61b1 b2b8 4fc9 3339
000000a0: feb3 3839 eb93 2c3a ca6f be38 db83 6eb9
000000b0: 7882 9539 e949 d439 2b97 b938 d413 0d3a
000000c0: 12d5 b1b9 8208 cbb9 3abe 2d3a 8700 41b9
000000d0: e9d2 eeb9 5fe8 f438 c530 8e39 4714 f0b9
000000e0: fcb0 fc39 e395 deb9 e456 90b9 fe95 78b9
000000f0: 3c58 8a39 8234 a7b9 e7e6 0c39 72a9 c7b9
00000100: c482 3a39 8365 183a c5cb 8239 8748 96b9
00000110: 74b2 0a3a 5a40 92b8 257f aa39 187f 1439
00000120: 2373 a539 f568 063a 0411 9eb9 7a1a b139
00000130: a8e5 8338 fe39 9fb8 aaae 0bba f12f 16ba
00000140: 15f4 8a39 da00 29b9 3e81 26b8 12c2 c8b9
00000150: d685 3bb8 5b79 d1b9 614a 093a daeb 60b9
00000160: 42c3 4139 f0b0 5439 af5f 2539 48c0 ef39
00000170: 4004 2a3a a5be 2739 4638 8d39 0bcf 2a3a
00000180: e86c d8b8 273c dfb9 237e 263a 4d38 58b9
00000190: 787e 0bba 08e3 fd39 ed4e 43b9 474e 9f39
000001a0: 15e2 3037 0f2e 8c39 4173 9437 232e 003a
000001b0: 9158 103a a250 acb9 987e a539 21cd 4eb9
000001c0: 0001 cdb9 98bb 91b9 833f a5b9 b7ca a239
000001d0: 8f2b 3d39 8bb2 5bb9 cf4e fd39 e64a e6b8
000001e0: ddcf 8438 04e3 bb39 4fa9 5fb9 9559 103a
000001f0: 9caf e7b9 16b0 d0b9 bef0 103a cae6 93b9
00000200: e5b6 3239 9bc6 3cb9 bc8e 21b8 6272 a3b9
00000210: e9dc ab39 579e b2b7 472d ccb9 9e7b ddb9
00000220: f3ea adb7 297d 88b9 d6a1 04ba 5d80 003a
00000230: cda0 0aba 004d cc39 65a0 073a f5c2 4ab8
00000240: 2f0f 78b8 0b41 bc39 a300 fb39 5168 08ba
00000250: b2bc 9039 4ed0 01ba 8901 c439 681a 2a39
00000260: e5f9 103a 40d3 0a3a 08fb 3839 82a6 e2b9
00000270: 061e 02ba 06cc 033a 34c7 d3b9 a36c 8cb9
00000280: 36fe 03ba f012 a4b7 c672 a239 e795 153a
00000290: bbc2 f536 76cc 1937 6b0f 083a 28b6 5ab9
000002a0: d964 83b9 89b4 a5b9 996d 8838 63c5 05ba
000002b0: b49d bbb8 cd44 5239 49d6 08b8 3b6b 9739
000002c0: 5a56 8cb9 d3ff c938 de3c 9239 0b86 29b8
000002d0: e7bc 58b9 0647 2c39 af09 d938 b297 5239
000002e0: 02b0 003a b136 14b9 5ee9 98b9 dff9 063a
000002f0: 5873 8739 474d 89b7 66db b7b9 a5ee c6b9
00000300: ce4e f439 ccbf 6c39 62ac e038 c780 feb9
00000310: 297e 4db7 0577 f4b9 11a4 e0b9 e75f d2b9
00000320: b3bc 00b9 ed29 75b9 099d cd38 0315 9139
00000330: e1fe 3bb9 87d2 87b9 1c57 053a ea78 05ba
00000340: 1961 e1b8 89c7 19b8 390b a939 dcbe 9335
00000350: 9822 9d39 4202 1439 7c95 fdb9 29bd acb9
00000360: a5e1 a3b8 684d bdb9 cbea 023a 3327 b9b9
00000370: 6aaa 8bb9 b929 ba39 8e71 a8b8 a34c 56b9
00000380: fbd5 c6b8 916c 9b39 51c7 1e3a 9e15 d139
00000390: f1b9 a938 1e04 253a baa1 96b9 0244 afb9
000003a0: 91c6 cdb8 0f30 58b8 e61e 60b9 beee e039
000003b0: ca4c c9b9 ebcb 66b9 5467 4d39 d90b d7b9
000003c0: e6c0 8938 3a53 f138 f427 1b3a 003b bdb8
000003d0: 41eb e539 06f7 0f39 f5bb 63b9 0775 093a
000003e0: ea9f 2e38 1e69 ad39 1100 1c3a 307c 07ba
000003f0: 7325 e0b9 f595 05ba 04bc 11ba 2e8f 20b9
0.00028072964 6.561019e-05 0.00039696853 0.00039465708 -0.0004494445 0.00029345704 0.0004045495 0.00052122143
-0.0003921649 -0.00026491497 -0.00050519913 0.00010421008 0.00026972542 1.9201978e-05 1.9432186e-05 1.6820608e-05
0.00023203416 0.00010745118 -0.00026797684 0.00014583737 -0.00022985738 -0.00022214583 0.00017456326 -0.00059481943
0.00023811292 -0.0003708307 0.00042583502 -0.0003223891 -0.00016164275 0.00069769303 0.0003046597 0.00057079014
-0.00033680798 -0.0001477382 0.00017463474 0.00030923425 -0.0003423342 7.7907265e-05 -8.520741e-05 0.00017145764
0.0001761466 0.0006583321 9.080728e-05 -0.00022746569 0.000285167 0.00040490858 8.849645e-05 0.0005381678
-0.0003391882 -0.00038725516 0.0006627772 -0.00018406111 -0.00045552038 0.00011678109 0.00027120687 -0.00045791475
0.0004819705 -0.00042454814 -0.0002753056 -0.00023707 0.0002638715 -0.00031891844 0.00013437458 -0.00038082484
0.00017787056 0.0005813466 0.00024947352 -0.00028664267 0.0005290874 -6.973809e-05 0.00032519657 0.00014161726
0.00031557036 0.0005127334 -0.00030148786 0.00033779797 6.2893436e-05 -7.592513e-05 -0.0005328456 -0.000572919
0.00026503266 -0.00016117413 -3.969785e-05 -0.00038291566 -4.470892e-05 -0.00039954003 0.00052372186 -0.00021450166
0.00018478654 0.0002028381 0.00015771271 0.00045728893 0.00064856187 0.00015997382 0.00026935543 0.0006515837
-0.00010319968 -0.00042578692 0.00063511933 -0.00020620339 -0.00053212745 0.00048425072 -0.00018626051 0.00030385164
1.0543056e-05 0.00026737197 1.7696644e-05 0.00048896874 0.00055063615 -0.00032866473 0.00031565572 -0.00019722107
-0.00039101392 -0.00027796323 -0.00031518572 0.00031050082 0.00018040671 -0.0002095198 0.00048314637 -0.000109812056
6.332968e-05 0.0003583656 -0.0002133001 0.0005506513 -0.00044190593 -0.00039804046 0.00055290374 -0.00028209976
0.00017043536 -0.00018003063 -3.8518323e-05 -0.00031175005 0.00032780253 -2.1292986e-05 -0.00038943646 -0.00042244507
-2.0732614e-05 -0.00026033193 -0.0005059516 0.000490194 -0.00052882434 0.00038967282 0.0005173742 -4.834212e-05
-5.914195e-05 0.00035906615 0.00047874925 -0.00052035326 0.0002760641 -0.0004951999 0.00037385177 0.000162223
0.0005530401 0.0005295761 0.00017641124 -0.00043230137 -0.000496358 0.0005027655 -0.00040393474 -0.00026783822
-0.0005035134 -1.9559142e-05 0.0003098456 0.0005706236 7.3242386e-06 9.167115e-06 0.0005190286 -0.00020857959
-0.00025061404 -0.00031605762 6.5053995e-05 -0.000510296 -8.946229e-05 0.00020052791 -3.2624495e-05 0.00028880857
-0.00026767218 9.632078e-05 0.0002789264 -4.0417577e-05 -0.00020669737 0.00016429657 0.0001034917 0.00020083672
0.00049090397 -0.00014134754 -0.0002916557 0.0005148928 0.00025835144 -1.6367658e-05 -0.00035067945 -0.00037943307
0.0004659802 0.00022578164 0.00010713261 -0.00048542602 -1.2248326e-05 -0.00046627983 -0.00042846848 -0.00040125774
-0.00012277327 -0.0002338064 9.804412e-05 0.0002767221 -0.0001792866 -0.00025906062 0.00050865277 -0.0005091565
-0.00010746922 -3.6663874e-05 0.00032242553 1.1007901e-06 0.00029971148 0.00014115221 -0.00048367295 -0.00032947332
-7.814475e-05 -0.0003610656 0.00049940933 -0.00035315155 -0.00026639114 0.0003550777 -8.0320155e-05 -0.0002043718
-9.481233e-05 0.00029644792 0.0006056922 0.00039879692 8.093182e-05 0.0006294864 -0.00028730725 -0.0003342927
-9.8121476e-05 -5.154317e-05 -0.00021373815 0.00042902486 -0.0003839492 -0.00022010475 0.00019588816 -0.00041016823
6.568599e-05 0.00011507278 0.0005918734 -9.023212e-05 0.00043853562 0.00013729566 -0.00021718426 0.00052435737
4.1633764e-05 0.0003307545 0.00059509376 -0.00051683467 -0.0004275251 -0.00050958927 -0.00055593275 -0.00015312128
